models/podium_model.pth (torch, 39290 bytes, 6 tensors)

fc1.weight f4 [128, 5]
000000 0b 96 9d 3d f4 58 a6 3e 1d bf de 3e 67 6f b5 3c
       0.07694634 0.3248974 0.43505183 0.022147847
000010 a7 b0 cb be 5a 02 50 3d 64 87 b0 3d 6a 69 09 3e
       -0.39783213 0.050783493 0.08619574 0.13419119
000020 98 bb 76 3e 63 14 74 3e 40 f0 bc 3c aa cf 17 3e
       0.24094999 0.23835902 0.023063779 0.14825311
000030 ae ea 35 bd 45 98 3a bd ec be a7 be 1b 3c cf be
       -0.04441326 -0.04555537 -0.3276285 -0.40475544
000040 aa 56 b8 3e c6 04 bb be 09 16 b7 3e f5 93 59 3e
       0.3600362 -0.3652708 0.35759 0.21247847
000050 9a 17 fd 3d 50 c5 f7 3e 75 ee a7 3e 00 ea 84 be
       0.12358017 0.48392725 0.32799116 -0.25959778
000060 67 d5 a7 be 47 d0 05 3e e2 a0 70 3e 28 e2 76 3e
       -0.3278 0.13067733 0.23498872 0.2410971
000070 fb 20 2d 3e 0f ad 18 3e 8d 48 be 3e a1 e8 4e 3e
       0.16907112 0.14909767 0.37164727 0.20205928
000080 a6 19 d7 3e c1 f0 0a 3d c1 22 9f 3e 21 9f 03 3f
       0.42011756 0.033921007 0.31081203 0.51414686
000090 2c 09 ae be ed d5 02 bd b0 c6 8b 3e 9a 4e 88 be
       -0.33991373 -0.031942297 0.27300024 -0.26622468
0000a0 94 66 9a bd de 06 5c 3e 0e 29 44 be c0 a8 04 bf
       -0.075390965 0.21486995 -0.19156286 -0.5181999
0000b0 88 08 c9 3e ba c9 3e 3e c9 15 98 3e 87 3a 13 be
       0.3926432 0.1863164 0.2970412 -0.14377795
0000c0 84 2f cf be f2 20 08 3d a4 ff c4 3e cb 01 c3 be
       -0.4046594 0.033234544 0.38476288 -0.38087305
0000d0 8d 80 00 be d1 e1 81 bd 2e f0 28 be 88 7a c2 be
       -0.12549038 -0.06341899 -0.16497871 -0.3798411
0000e0 f1 9c bd bd e7 a3 7f be 47 e4 ea 3e bb d0 0f be
       -0.0925845 -0.24964868 0.45877287 -0.14044468
0000f0 bb fd 4f be 97 a6 8f 3e 89 5e 87 be 8d e9 d4 3c
       -0.20311634 0.28056785 -0.26439312 0.025990272
000100 09 c1 9d 3e 02 84 77 3d 9e 77 a6 3e 44 ea 8d 3e
       0.30811337 0.060428627 0.32513136 0.27717793
000110 84 bd c1 3e 02 0d 93 bd 1d 77 cb 3d 0d 81 c0 3e
       0.378399 -0.071802154 0.099348284 0.37598458
000120 94 ac 6a be b4 1b 82 be 36 4e 89 bc 58 5c 50 be
       -0.22917396 -0.2541176 -0.016760927 -0.20347726
000130 22 fd aa 3e c7 c0 af be 68 8b f3 3c 0a b7 9e 3e
       0.3339625 -0.34326765 0.02972956 0.30999023
000140 a8 cc e1 3e d0 a7 8f 3e 63 ee 75 be 7a 82 d0 be
       0.44101453 0.28057718 -0.24016719 -0.40724546
000150 34 0d d2 be 82 c8 a8 be 77 6b e9 bd 38 8e 5a be
       -0.41025698 -0.32965475 -0.113974504 -0.21343315
000160 c0 88 8d 3d 73 0e 68 be ec 1c 30 be 51 8d 80 3e
       0.069108486 -0.22661762 -0.17198533 0.25107816
000170 61 a3 fa 3c e9 9f c8 be 02 53 92 3e 8c 4c 2b 3c
       0.030595483 -0.39184502 0.28578955 0.010455262
000180 74 29 28 3e 09 98 5b be b7 5c f8 be c0 93 6d be
       0.16422063 -0.21444716 -0.48508236 -0.23200893
000190 fe ab 95 3e 86 5b 2d 3e d4 7b 9e 3e 9d 16 76 be
       0.29232782 0.16929445 0.30953848 -0.24032064
0001a0 4b f6 e5 be 9f 94 0e be 77 7d ea 3d d0 cf 03 3e
       -0.4491447 -0.13923882 0.11449712 0.12872243
0001b0 bb 89 4a be 89 88 be 3e e8 6b a6 3e ff cb 02 3f
       -0.19779103 0.37213543 0.325042 0.51092523
0001c0 41 04 ac 3d 3b 52 d4 be 3f 36 9f be 6e 09 48 3e
       0.08399249 -0.41468987 -0.31096074 0.19534847
0001d0 f2 e2 bc be 32 c2 e6 3e d7 c4 0a 3f 36 d7 31 3e
       -0.36891896 0.45070034 0.54206604 0.17367253
0001e0 61 ae 3a 3e a6 ee e6 3e ca c2 6f 3e 58 7d 93 be
       0.18230583 0.4510395 0.2341415 -0.28806567
0001f0 c0 c4 8d 3d 62 a8 50 be 7d 04 ed bd 06 93 b0 3c
       0.06922293 -0.20376733 -0.11573122 0.021554481
000200 d7 ce 97 be ca 41 4c bd 0e 89 44 3d 33 69 11 3c
       -0.29649994 -0.04986743 0.047982268 0.008875179
000210 2f ed 3c 3d e5 df de 3e fe 72 94 3e f9 9e d3 be
       0.046124633 0.43530193 0.28993982 -0.41332224
000220 b1 5c d3 3e 1a cc 84 bd 27 33 99 be e8 15 82 3e
       0.41281655 -0.06484242 -0.2992184 0.25407338
000230 06 ea ce 3e c8 c5 86 3e 7f d6 90 be f8 22 f9 be
       0.4041292 0.2632277 -0.28288648 -0.48659492
000240 5b 65 16 be d6 83 a6 3c 50 3e 9e be 44 10 68 3e
       -0.14687102 0.020326536 -0.30906916 0.22662455
000250 b6 f8 d4 be ff 03 04 bf f2 7b d9 3c 0f 2c c4 be
       -0.41596 -0.515686 0.02654836 -0.38314864
000260 9c 0f e1 3e ee 0e bd be de e5 ab be cc 5b c9 3e
       0.43957222 -0.36925453 -0.33573812 0.39327848
000270 99 bb 37 be 7b 6d 86 3e 76 61 bd be 13 92 72 be
       -0.17942657 0.26255402 -0.3698842 -0.23688535
000280 7f 6d 27 3e f1 c9 c9 3d 84 18 1e 3e dc 93 3e be
       0.16350363 0.098529704 0.1543904 -0.18611091
000290 e9 63 ba 3e 53 ad 37 3e a2 a4 a8 3e 5f 86 9d 3b
       0.3640435 0.17937212 0.32938105 0.004807278
0002a0 18 a6 41 3e b5 a0 a2 3d 4e e3 a4 3e b9 86 a4 3d
       0.18911016 0.07940809 0.3220467 0.08033509
0002b0 d9 cb 83 3e 1a d8 81 be 15 85 5d 3e 00 ce 53 bd
       0.2574146 -0.25360185 0.21632798 -0.05171013
0002c0 c8 d1 11 3f 38 ed 82 3e 82 cd 57 3e 61 2a 47 be
       0.56960726 0.2557161 0.21074489 -0.1944976
0002d0 7a 45 c5 bd d7 86 ab be eb e4 a5 be ab ae 42 3e
       -0.09632392 -0.33501312 -0.32401213 0.19011943
0002e0 c5 b3 b9 bd e3 23 70 3e 53 61 a8 be 03 a1 9b be
       -0.090674914 0.2345119 -0.32886752 -0.3039628
0002f0 5c ce b5 3e c0 1d e4 be 2e ee d7 be 53 10 f0 bd
       0.35509002 -0.44553947 -0.42173904 -0.117218636
000300 98 99 88 bd ca 08 f0 bd 67 fd 25 3d a0 8a f2 3e
       -0.06669921 -0.117204264 0.040524866 0.47371387
000310 8a b4 99 be 3f f7 cf be 2c 26 da 3c f3 42 b5 3e
       -0.30020553 -0.4061832 0.02662953 0.3540264
000320 d5 7d 7a bd eb 1f cf be 94 c6 8d 3e 56 30 6d 3e
       -0.06115516 -0.4045404 0.27690566 0.2316297
000330 c7 31 7d 3e e9 43 bc bd 83 e8 95 3e 5f 61 c2 bd
       0.2472602 -0.0919264 0.29278955 -0.09491228
000340 9f fa 85 be e2 15 10 bf f3 74 f6 be db 87 83 3d
       -0.2616777 -0.5628339 -0.481361 0.06422397
000350 55 c1 a1 3c 9b 5b b0 3e 83 74 a6 3e ad 3c c1 3e
       0.019745508 0.3444489 0.32510766 0.37741604
000360 11 b0 d4 3e ad 27 b1 bd 21 3b 78 3e c7 5f d3 3e
       0.41540578 -0.08650146 0.24241306 0.4128401
000370 e5 c6 c6 3b 50 59 b4 be 98 d6 ca be 4d d4 01 be
       0.0060661905 -0.3522439 -0.39616847 -0.12678643
000380 83 e9 00 3e ea 69 cb bc 1c 6d ff be 0e 31 dd 3d
       0.12589078 -0.024830777 -0.4988793 0.10800372
000390 ba 9f 64 bd d0 53 8e 3d 64 3b 3b be 35 c2 af 3e
       -0.05581639 0.0694958 -0.18284374 0.34327856
0003a0 0c bb 3b be 2f e5 04 3d 82 88 fe 3b 4c 6c 63 bc
       -0.18333071 0.03244513 0.007767738 -0.0138808
0003b0 02 e4 2e 3e 45 33 a5 3e 93 bc 90 3e db 82 d4 be
       0.17079166 0.32265678 0.2826887 -0.41506085
0003c0 53 4e d7 3e 0b 72 b2 be e2 8f b0 3e 45 35 bd 3e
       0.42051944 -0.34852633 0.34484774 0.36954704
0003d0 ea 6b 69 be 09 bd ab be d1 0a 95 3d a5 53 b5 3e
       -0.22795072 -0.3354266 0.07277454 0.35415378
0003e0 de 44 0d bf e8 29 a7 3d f4 b9 66 3e 0d bc 08 3f
       -0.5518321 0.0816229 0.22531873 0.5341194
0003f0 ab a6 32 be 30 41 05 be dc 33 8f be 3d d7 58 be
       -0.17446391 -0.13013148 -0.27969253 -0.21175857

fc1.bias f4 [128]
000000 c8 8a 84 be bc b1 fd 3c 0d 08 be 3e cb c1 99 3e
       -0.25887132 0.03096854 0.37115517 0.30030665
000010 da b6 2f be 64 fd bf 3e 83 a0 87 be db 3a c3 bc
       -0.17159596 0.3749801 -0.26489648 -0.023831775
000020 f3 6f 89 be 27 fe c3 3e 5a 58 e6 3e 2e 53 cf be
       -0.26843223 0.3827984 0.44989282 -0.4049315
000030 51 ee 78 be 7a d5 c8 bd 7a ca a4 be e6 82 83 3e
       -0.2430966 -0.098063424 -0.32185727 0.25685805
000040 0a 1c d9 3d a1 ac 17 bd 20 cc e1 3e 85 f4 8c be
       0.10601051 -0.037029866 0.44101048 -0.27530304
000050 c8 f7 97 3e 65 7e c1 3e 5c fc d9 be a8 84 8c be
       0.2968123 0.37791744 -0.42575347 -0.2744496
000060 15 2b 48 be 80 73 21 3e 81 53 92 3d 8a 3e 93 be
       -0.19547684 0.15766716 0.07144833 -0.2875865
000070 e6 ff 6a be 6c 10 24 be b9 ed 8e 3d db 3b af 3e
       -0.2294918 -0.1602189 0.06978936 0.34225354
000080 f0 39 00 3f 55 61 4a 3e 92 5c 83 be b1 1f 82 be
       0.50088406 0.19763692 -0.25656563 -0.25414804
000090 bc 6b 91 be 14 d6 2e 3d 4d 08 8c 3e 9f 77 d3 be
       -0.28402507 0.04268463 0.27350083 -0.413022
0000a0 76 e4 a1 be 58 ff a7 bc 66 35 bf bd a0 0d 3c 3e
       -0.31619614 -0.0205075 -0.09336357 0.18364573
0000b0 ec 84 ab be 87 64 ae bd 45 e4 e3 be 61 2a 53 bc
       -0.3349985 -0.08515268 -0.44510093 -0.012888522
0000c0 6f d2 eb bc 2f 89 6d be b0 bb a6 be a3 10 f3 be
       -0.028786866 -0.23196863 -0.3256507 -0.4747363
0000d0 06 a3 f1 3e f6 61 9e 3d 6e f7 3a be 59 db df 3e
       0.4719469 0.07733528 -0.1825845 0.43722036
0000e0 77 0a 95 3d d3 99 0c be 56 33 a8 3e a9 46 02 be
       0.07277387 -0.13730554 0.32851666 -0.12722267
0000f0 0d 30 dc be 6c 7c 35 be e3 c8 b9 3d c8 52 8b bc
       -0.4300541 -0.17723244 0.09071519 -0.017007247
000100 89 ad a6 3e 6e fc 9e be 86 7d 62 be af a7 64 3c
       0.32554272 -0.31051964 -0.22118196 0.0139559945
000110 8c 12 9b bd 33 ce 91 be 28 4a c0 be a9 cd cd 3e
       -0.07571897 -0.2847763 -0.37556577 0.4019597
000120 a8 53 98 3e c7 3f 5c 3e 35 67 d4 be 59 66 8f be
       0.29751325 0.21508704 -0.4148499 -0.28007773
000130 d6 21 63 be 6e 6e 9f 3e d2 91 ef 3d 0d 72 9c 3c
       -0.22180876 0.3113894 0.11697735 0.019097352
000140 45 9c c6 3e dc c0 b7 3e 82 42 76 bd ae 0c 92 3e
       0.387911 0.35889328 -0.06012202 0.285253
000150 02 cc 21 3e 4a c3 97 be d3 f7 df be ee 43 d3 3d
       0.15800479 -0.2964118 -0.43743762 0.10315691
000160 10 6b 0a bd 76 7e 5d 3e 6d f4 e6 3d f7 7c aa 3c
       -0.03379351 0.21630272 0.11277089 0.020811541
000170 91 9c af 3e c0 8f 9b 3d cf 7c 94 be 21 6e 9c 3e
       0.34299138 0.075957775 -0.2900147 0.30552772
000180 88 27 c6 3e 16 a6 cd be 9f 19 52 be 36 9f e9 be
       0.38702035 -0.40165776 -0.20517586 -0.4562928
000190 07 63 88 be 2d 59 19 bd 19 c9 85 3e 9f 79 c5 be
       -0.26638052 -0.03743856 0.26129988 -0.38569352
0001a0 27 4c ca 3e ba f8 08 3e 82 4e f6 3e c5 6a 92 be
       0.39511225 0.13376132 0.48106772 -0.28597084
0001b0 b6 23 c2 be 09 dd 7c bd 4f 05 38 be cc 6f e9 3b
       -0.3791787 -0.061734233 -0.17970775 0.007123923
0001c0 62 3e 95 3e ff a2 d1 3e 9b 4d 2f 3e 16 b0 c4 be
       0.29149157 0.4094467 0.17119448 -0.38415593
0001d0 75 df b0 3e 75 c2 39 3e 98 5c 31 3d 27 f1 82 3e
       0.34545484 0.18140586 0.043301195 0.2557461
0001e0 27 00 01 bd a2 21 bb 3e 65 6a 8b be 77 87 a8 bb
       -0.031494286 0.36549097 -0.2722961 -0.005143102
0001f0 1d c7 bd be 9c d1 6a 3d 13 8d 85 be 53 f6 37 be
       -0.37065974 0.057328805 -0.26084194 -0.17965059

fc2.weight f4 [64, 128]
000000 9e 31 7f bc a6 12 b4 ba b2 66 19 3d 2e 9a 8b 3d
       -0.0155757945 -0.0013738468 0.037451454 0.06816517
000010 45 49 75 bd 18 f5 91 3d 13 f3 79 bd 6f b3 1e 3d
       -0.05988433 0.07126826 -0.06102283 0.03874534
000020 a7 b7 80 bc 69 e5 81 bd 57 0f 2f bd 24 b7 29 3c
       -0.015712572 -0.06342585 -0.04273924 0.0103586055
000030 5f ee c4 bd 5d 13 a5 bd e4 74 05 bd 72 4d 2c bd
       -0.09615778 -0.08060334 -0.03258218 -0.042066045
000040 a6 90 9c bd 08 be 81 bd 24 49 92 bd 00 b5 e8 bb
       -0.07644777 -0.06335074 -0.07142857 -0.007101655
000050 69 b0 04 3d 07 da 0c 3d 14 45 21 3d c9 69 59 bb
       0.0323948 0.034387615 0.03937252 -0.0033174625
000060 e9 e7 46 bb e2 a8 19 ba b6 a8 07 bc ab e3 2a 3d
       -0.0030350632 -0.00058616523 -0.00827997 0.041721027
000070 57 50 a9 bd 49 38 02 bd 4d f5 08 bd 7c 84 58 bd
       -0.08267277 -0.03179196 -0.033437062 -0.052860722
000080 c6 37 67 3d 52 e7 b4 bd c1 60 34 bb 0d 72 c9 bc
       0.056449674 -0.08833183 -0.002752349 -0.024590516
000090 86 cb 57 bd 86 28 c2 bb 67 6b 9e bd 2f 0b 32 3d
       -0.05268433 -0.005925241 -0.07735329 0.043467697
0000a0 1d 06 60 3d 62 e6 8a 3b 64 6a ec bc 6f c7 4d 3d
       0.05469333 0.0042388896 -0.028859325 0.050239023
0000b0 ce b8 80 bd 18 14 8a 3d ff 14 f9 bc 3c bd ae bc
       -0.06285249 0.06742114 -0.03040552 -0.021330468
0000c0 28 88 4c 3d 9d 07 69 bd 13 80 d5 3b 4f a8 1f bd
       0.049934536 -0.056892026 0.006515512 -0.03897887
0000d0 d8 25 98 bc 82 5a be bd 91 f4 ab bc e2 75 73 bd
       -0.018572733 -0.09294607 -0.020990642 -0.059438594
0000e0 9f ed 22 3d 60 99 40 bd 86 74 1f bd cf ef c2 bd
       0.039777394 -0.04702127 -0.038929485 -0.09518396
0000f0 4e dd 53 bc 5f c8 a5 bd cd 5e a4 bd d5 14 2d bd
       -0.012931181 -0.080948584 -0.08025894 -0.042256195
000100 54 0f 20 3d 75 16 86 3d 07 3c ac bd 64 06 41 bc
       0.039077118 0.06547252 -0.08409887 -0.011781309
000110 8e 1a 41 bd 2e 83 e1 bc 94 27 71 bd 12 22 a3 bc
       -0.047144465 -0.027528372 -0.058875635 -0.019913707
000120 90 ba 7c bb 19 01 93 3d f8 fd 05 3d 08 9c c1 3c
       -0.0038563348 0.07177944 0.032712907 0.023633972
000130 e6 7c 4c bd 22 6d 2d 3d df 44 d2 bc 97 de 84 3d
       -0.0499238 0.042340405 -0.025667606 0.06487768
000140 7f eb 8c 3c f3 1d 23 3c 82 c4 c1 3c 35 10 11 bd
       0.017202137 0.009955871 0.023653273 -0.035415847
000150 f8 91 2c 3d 7b e5 1a 3d 88 cd a4 3d 1c cd 36 bd
       0.042131394 0.037816506 0.080470145 -0.0446292
000160 96 36 a4 bd 04 2f ad bd 2b 70 4e bd 87 f5 80 3d
       -0.08018224 -0.08456233 -0.05039994 0.062968306
000170 b0 62 98 3d c0 39 01 3d e6 f6 72 3d 8f 81 87 bd
       0.07440698 0.031549215 0.059317492 -0.06616508
000180 85 b1 ce 3b fc a3 7a 3c dd 03 02 3d a7 08 bc 3c
       0.006307783 0.015297886 0.031741966 0.022953345
000190 99 c3 29 bc 7b 04 19 bd 39 f8 3e bd 42 4c d3 bc
       -0.0103615755 -0.03735779 -0.046623442 -0.025793198
0001a0 c2 9f 44 3d 18 24 2d bd 78 c6 8c bd 1a 2b 09 bd
       0.04800392 -0.04227075 -0.068737924 -0.03348837
0001b0 e8 df 5a 3c 6c f0 8a bc 74 0b 01 bd 50 22 a9 bd
       0.0133590475 -0.016960345 -0.031505063 -0.08258498
0001c0 2e b6 00 bd 30 38 58 3d 84 1c 5b 3c c9 11 82 3d
       -0.03142374 0.05278796 0.013373498 0.063510485
0001d0 a1 97 2d 3b 17 e9 1d ba 11 0a bf bd 42 f1 8b bd
       0.0026488083 -0.0006023808 -0.09328092 -0.06833126
0001e0 11 cb 75 3d b7 4d 57 bd 53 f7 6c bd 92 9e 80 3d
       0.060008112 -0.05256435 -0.057853054 0.06280245
0001f0 04 5e 6e 3b f8 08 bc bd b8 7a 8b bb b9 24 4c bd
       0.0036371956 -0.09181398 -0.0042565726 -0.04983971
000200 6b 26 56 bd 26 3b 5b bd 78 57 9a bd c9 08 15 bd
       -0.052282732 -0.053523205 -0.075362146 -0.03638533
000210 f8 52 d0 bc 9f e6 96 3c 71 50 84 bd fb 06 a9 bd
       -0.025430188 0.018420516 -0.064606555 -0.082532845
000220 51 3d 5a 3d dd bf 31 3b 0c e3 b9 bb 80 36 27 3b
       0.053281132 0.0027122416 -0.005672818 0.0025514662
000230 d8 a0 77 bd 40 91 99 b9 38 6e 81 bd 8e e1 30 bd
       -0.060456127 -0.00029290654 -0.06319851 -0.043183856
000240 2d 1a 17 bd 5e 20 25 bd 76 07 b3 bd 00 c7 55 bd
       -0.036890198 -0.04031407 -0.087416574 -0.052191734
000250 c3 5b de bc 48 6f 9e 3d 61 36 b5 bd 13 6a 26 bd
       -0.027143365 0.07736069 -0.088482626 -0.040628504
000260 b5 60 5d bd 83 a6 fe bc f2 38 5f bd 24 32 0a bd
       -0.054047305 -0.031085258 -0.054497667 -0.033739224
000270 a3 e5 c9 ba 7f 50 1b 3d bd 33 85 bd 8a 4a 76 3d
       -0.001540352 0.037918564 -0.06504009 0.06012968
000280 c6 2f 1c bd 38 40 b3 bd 41 81 0d bd fe d9 4b bd
       -0.038131498 -0.08752483 -0.034547094 -0.04976844
000290 65 2f 14 bd ab a1 69 bd 8b 27 aa bc 67 a6 13 3d
       -0.03617801 -0.057038944 -0.020770809 0.036047366
0002a0 00 4f 0f 3d 89 52 cc bc 40 dd a9 3c 96 19 62 3b
       0.03498745 -0.0249417 0.020735383 0.0034500114
0002b0 88 d3 2c 3d 72 d4 bd 3c 39 5c 63 bd 40 13 c7 ba
       0.04219392 0.02317259 -0.055507872 -0.0015188232
0002c0 c5 e6 ab bd d4 d1 23 3d e1 5f ad bd ec de a9 bd
       -0.08393625 0.03999503 -0.08465553 -0.08294472
0002d0 ff d2 98 bd 05 f1 ae bd 54 bb a6 bc 6a 0d 51 bd
       -0.07462119 -0.085420646 -0.020352997 -0.051038183
0002e0 7a b3 ce 3c e0 da 0c 3d e9 71 62 bd 7f a1 9a 3d
       0.025232065 0.034388423 -0.055284414 0.07550334
0002f0 7e b5 16 3d 46 78 d1 bc d4 86 61 bc 68 7c 11 bd
       0.03679418 -0.025570046 -0.013765056 -0.035519034
000300 7a fc e4 bc d7 64 aa 3d 2e 09 21 3d e2 fa 36 3d
       -0.027952421 0.08320015 0.039315395 0.044672854
000310 08 0e 3f 3d 81 79 1e 3d ec f4 45 3d fc ab 1b 3b
       0.04664424 0.038690094 0.04832928 0.0023753634
000320 e5 3d 9f bd 8d 15 b0 3d 25 a9 9a 3d 54 ce 3c bd
       -0.07775477 0.085978605 0.07551793 -0.046095207
000330 02 55 6e bd ab 9d c7 3c 56 03 55 3d 9e 9a 61 bb
       -0.05818654 0.024367174 0.052005135 -0.0034424434
000340 b2 62 36 3d 80 d5 b9 bd 82 dd 97 3d ae a2 ee bc
       0.044527717 -0.09073925 0.07415296 -0.029130306
000350 b5 d3 f5 3c 34 21 87 bd 22 7d 8f bd 2d 1a b0 bd
       0.030008176 -0.0659813 -0.07006289 -0.08598743
000360 bf d3 a9 3d 10 76 1f 3c 2d 3a e7 bb 00 b1 57 3d
       0.082923405 0.009732738 -0.0070564956 0.052659035
000370 2e 86 5d 3c 82 d1 a5 bc 5d 5a b8 bc 79 42 0d 3d
       0.01352076 -0.020241503 -0.022504026 0.03448722
000380 42 73 d2 bc b4 b1 a4 3d 90 72 82 bd 7e 7c 92 3d
       -0.025689725 0.08041707 -0.06369507 0.07152651
000390 a2 3d 99 3c 9c b6 11 bd 53 c2 98 3d c3 7d 93 bc
       0.018706147 -0.03557454 0.074589394 -0.018004304
0003a0 92 ae 82 3c a8 f1 75 bd a8 a8 f2 bc 88 ba 99 3d
       0.015952382 -0.060044914 -0.029621437 0.07506281
0003b0 a1 b4 15 3d 07 d1 cc 3c 5a bc 12 bc de 6b 30 3d
       0.036549214 0.025002016 -0.008956039 0.04307162
0003c0 66 09 ca 3c 5a f1 0c bd 82 53 1b 3d 13 17 42 3c
       0.024662685 -0.03440986 0.037921436 0.011846322
0003d0 d1 01 1e bd 53 f1 18 3d a7 cb 87 3d da a2 11 bc
       -0.03857595 0.03733952 0.066306405 -0.0088889245
0003e0 a8 85 16 3c 6f 57 10 bd 12 32 76 bd 4b cd a2 bd
       0.00918714 -0.035239633 -0.060106345 -0.07949313
0003f0 cf 6a ae 3c 55 b3 92 bd 02 04 b2 3c 37 4b 98 bd
       0.021291165 -0.07163111 0.021730427 -0.07436221

fc2.bias f4 [64]
000000 6e c7 8f bc 1e e8 32 bd 87 0b 0e bd c2 cb 93 bb
       -0.01755115 -0.043678395 -0.034678962 -0.004510374
000010 7c df 9d 3c a4 14 f4 3d 8f eb 04 3d e1 0f 95 3d
       0.019271605 0.119179994 0.03245121 0.07278419
000020 a0 db 8f 3d 3e 17 95 3d 86 60 9f 3c e5 49 89 bd
       0.07024312 0.07279824 0.019455206 -0.067035474
000030 a0 ab 4b 3d cc ec c9 3d e0 75 ef 3d 23 ee 99 bd
       0.04972422 0.098596185 0.11692405 -0.07516124
000040 ce 12 31 3d 12 84 13 3e 0c 4d df bd e5 e8 5c 3d
       0.043230824 0.1440585 -0.109033674 0.053933043
000050 9c a9 a9 3d 6c f2 09 bd 86 6b a1 bd c9 1f 3d bc
       0.082843035 -0.033678457 -0.078818366 -0.011543223
000060 24 b3 13 3e d2 fe 0f bb 1e 80 9d 3d 1c 3c f4 3c
       0.14423805 -0.0021971953 0.07690452 0.029813819
000070 ef de a6 3d 5c 75 a4 bc e7 48 9b bd 1f 9f 02 3e
       0.0814799 -0.020075493 -0.075822644 0.12756012
000080 ad b0 e4 3a 30 5a ad 3c b4 ad a0 bd 8a cf c0 3d
       0.0017447673 0.021161169 -0.07845631 0.09414585
000090 b4 f7 9a bd bb 8d e9 3c 84 68 02 3e 15 c6 7b 3d
       -0.07566777 0.028509965 0.12735182 0.061468203
0000a0 cd 70 3d bc a3 45 51 38 99 a2 ed 3c df 50 c4 3d
       -0.011562538 4.9894337e-05 0.029008197 0.095857374
0000b0 b1 2e 98 bd 0a 43 79 bd b1 b1 89 bd ea b0 96 3d
       -0.07430781 -0.06085495 -0.06723345 0.073579624
0000c0 26 e6 98 bd b3 e9 c3 bd cd bd 6a bd b4 b8 d2 ba
       -0.07465772 -0.09566059 -0.057309914 -0.0016076774
0000d0 c4 a0 a7 3c 3c ce 16 3e 5b 67 0b 3e a7 c3 c0 bd
       0.020462401 0.1472711 0.13613646 -0.09412318
0000e0 ae bd 0b 3e ab 58 42 bd f2 8d 75 bc 12 16 04 3e
       0.13646576 -0.04744784 -0.014987456 0.12899044
0000f0 c7 97 23 bb d9 56 17 3e 76 2f e3 3c 59 df af 3d
       -0.0024962293 0.14779224 0.027732592 0.08587522

fc3.weight f4 [2, 64]
000000 58 8a da 3d 1c 0e e0 bd 6e 90 9a bd a0 e4 0b 3e
       0.10670918 -0.10940191 -0.07547079 0.13661432
000010 56 ae f4 3d cf 04 0c 3e 09 29 ef bd 78 d4 15 3e
       0.119473144 0.1367371 -0.11677749 0.14631832
000020 c3 af 22 3e 0d 59 9d 3c 9c 3d 66 bd d0 36 b2 3d
       0.1588736 0.019207502 -0.0562111 0.08701861
000030 ed 47 e0 3d 7d e1 1f 3e 12 e2 2b 3e a4 65 c4 bd
       0.10951219 0.1561336 0.16785458 -0.09589699
000040 41 fe 97 3d bb f9 24 3e 7a 9c 24 be 4d 41 ae 3d
       0.07421542 0.1611089 -0.16075316 0.08508549
000050 d0 f1 15 3e 97 93 4c 3c c8 3d 2f be 58 15 1d bd
       0.14643025 0.01248636 -0.17113411 -0.038350433
000060 8a 63 d7 3d 27 58 82 bd 02 66 37 3e a2 9c 3b 3d
       0.105170324 -0.0636447 0.17910007 0.045803674
000070 a4 a6 4e be c2 26 56 3e 07 36 14 3d 7f f0 1a 3e
       -0.20180756 0.20913222 0.036184337 0.15130804
000080 08 91 b2 3d a5 e3 80 3d 46 94 a5 bd 81 1b 24 3e
       0.08719069 0.0629342 -0.080849215 0.16026117
000090 70 3e 85 be 09 a5 19 3e 80 46 24 3e a9 71 28 3e
       -0.260242 0.15004362 0.16042519 0.16449608
0000a0 2b 93 62 3d a0 a8 1d 3d 43 69 27 3e 91 86 1f 3e
       0.05531613 0.03849089 0.16348748 0.15578677
0000b0 e7 5f e0 3c a2 f0 8d bd 16 d8 82 3e 89 fd 14 3e
       0.02738948 -0.06930663 0.25555485 0.14549841
0000c0 ab df e0 bd 85 82 c4 bd 5c 82 16 bd 65 66 10 3e
       -0.10980161 -0.09595207 -0.036745414 0.1410156
0000d0 b7 95 ce 3d 1f 46 2c 3e e1 0f ef 3d 55 4d d5 bd
       0.100871496 0.16823624 0.116729505 -0.104151405
0000e0 2f 6d 08 3e c3 89 b0 bd ce 2d a0 3d e7 5d 3a 3d
       0.133229 -0.08620026 0.078212366 0.04549971
0000f0 66 7c 30 3e f9 c5 3b 3d 4d 95 3a 3d 2a 38 e7 3d
       0.17234954 0.0458431 0.04555254 0.11290009
000100 d4 be ce 3d a1 83 75 ba d7 77 cf 3b c9 18 03 be
       0.10094991 -0.00093656225 0.0063314247 -0.12802424
000110 a0 0f 0b 3d d1 0c 93 bc 45 30 33 3d 06 18 15 be
       0.033950448 -0.017950447 0.043747205 -0.14559945
000120 16 79 eb bc dc 5d e0 bd f4 93 81 bd 0f 18 18 3c
       -0.028744262 -0.10955402 -0.06327048 0.00928308
000130 ac 02 2e be 1c 8c 1d be ab 93 8e 3c e1 65 25 3d
       -0.16993207 -0.15385479 0.017404398 0.040380362
000140 65 47 77 bd 2c 93 f2 bd 02 34 fa 3c bf 41 9d 3d
       -0.06037082 -0.11844477 0.030542377 0.07678556
000150 ee ff 70 bd 6a b3 ba 3d f3 74 b9 3b 25 e3 40 3e
       -0.058837824 0.09116252 0.0056596934 0.18836649
000160 45 d5 a7 bd 01 ae a0 bd cf c3 9c bd c3 92 ea bd
       -0.08194975 -0.078456886 -0.07654535 -0.11453774
000170 2d 8d 09 3e b7 ff 6c be eb c0 96 3d d5 ea a5 3c
       0.1343276 -0.23144422 0.07361015 0.020253578
000180 c2 75 28 be ef 4a 64 3d af 1f f4 3d 18 cd 2c bd
       -0.16451171 0.055735525 0.11920106 -0.04218778
000190 65 84 5d 3e d9 3e 9b bd 9a 71 b2 bc 28 70 20 be
       0.21632536 -0.075803466 -0.021782685 -0.15667784
0001a0 f6 90 1a be d6 33 84 3d f6 85 fa bd 0e 77 7c bd
       -0.1509436 0.064551994 -0.12232582 -0.061636977
0001b0 23 b2 d4 3d 54 9b 2f 3e d3 5f 27 be ed f5 0c be
       0.103855394 0.17149097 -0.16345148 -0.13765688
0001c0 9f 1b 4f 3d 81 a3 c6 bd 13 c0 dc 3c 14 ac 2e be
       0.05056345 -0.09699155 0.026947057 -0.1705783
0001d0 17 e1 35 be 63 1c 2e be 6d 78 a1 bb c3 89 a8 3d
       -0.17761646 -0.17003016 -0.004927686 0.08229401
0001e0 c1 75 29 be f4 a2 0a 3d 80 b7 24 3d 75 0c 97 bd
       -0.16548826 0.03384681 0.04021406 -0.07375423
0001f0 4d 91 b6 bd f8 51 d2 bd ce 33 e7 bd 85 82 0e be
       -0.08914433 -0.102695405 -0.11289178 -0.13916977

fc3.bias f4 [2]
000000 be 1d e7 3c 3d d0 5b 3d
       0.028212424 0.05366539
