models/points_model.pth (torch, 39290 bytes, 6 tensors)

fc1.weight f4 [128, 5]
00000000: 0972 02bf 1733 a73e 1114 b0be bcfe 003e
00000010: 7b59 19be 69c8 77be 49a5 b2be c668 22be
00000020: a5db 993e e940 933e 557e 233d ccb3 4fbe
00000030: bacd e23e 921d 8e3d 38e2 c23e ba4a 44be
00000040: d340 8fbe 3a18 6e3e eab9 163e c336 133e
00000050: 3f87 84be 07d0 b73e 32ab d4bd de69 febe
00000060: 684e 923d 811b ae3e 2d7a 9f3e b180 0bbe
00000070: 1445 0e3f 7ad9 593e 26d8 8abe f3b7 ffbe
00000080: 27a7 e0bd 7cef 87be 0c82 4dbe 105b 94be
00000090: e4bd 94be 48c6 963e 7f27 2d3e 4316 c63e
000000a0: 6138 e3bd 713c 25be 6a7f 853e d55d 5c3e
000000b0: 5e6d 7bbe b903 f13d 960a e7be a292 84be
000000c0: 1145 e9be 79e2 113e 56e4 693e 696c cc3e
000000d0: c1f5 23bd fca6 fbbd d47d e4be 197b b9bd
000000e0: b331 283e 993b e83d 51be aa3e f1e8 e73d
000000f0: 5409 a53e 5be6 873d d8e2 c83e 1961 df3e
00000100: 538f 043e ee49 043e ccda 32be cef1 57be
00000110: 2023 7abe 9a2d 873e 2511 aa3e 0a66 ea3e
00000120: 60fa 28be 79f0 61be bc32 a53e ddda 9d3e
00000130: d633 0fbf d951 15be 7463 f53d e56f c1be
00000140: 83ad b33d 0274 253e 4a87 5e3e 5812 e73e
00000150: e012 9ebd 5a8f ba3e 899d 3f3e 7d18 1d3e
00000160: 38c5 0a3e d60d cebe 33c2 26bd a534 c4be
00000170: c889 b03e 9f0e c6be 010d b33e 5a07 e6bd
00000180: 2e5d ddbe 036d 423e 434c 27bd 6394 d23e
00000190: bb0f adbe bcef 84be 289e 1cbe 82fc e53d
000001a0: f6a8 fbbe d548 9cbd 2bff 593e caf2 6ab9
000001b0: a2f6 9a3e c201 39be 522b 05bd 1718 febe
000001c0: e2a1 093b bcca dabe 4427 d8be 36d6 16be
000001d0: 8374 d9be f3ab ea3d b137 3dbd 0419 a13e
000001e0: bb17 17bd 6777 39be 3fcd 873e 0dd9 afbe
000001f0: ae42 d1bd 7e24 86bb b798 303e c08d 8fbe
00000200: c616 edbe 4ec1 7ebe 3ad7 8b3e 0ca0 fe3d
00000210: 6907 a33e 71c7 afbd 9b92 d2be 3b88 57be
00000220: 2425 263e 7d9e 6d3e ed09 20bd 5ab5 f03e
00000230: 4f76 c13e 27bf 91be b9e4 d03e 3f02 81be
00000240: 081e 62bd a747 b43d 590a a73e 1b5e cabc
00000250: ea15 293e bc5a 8b3e 0e22 15be 9d1c 703e
00000260: 3b26 86be b999 143f 120c d33e d7fa 9abe
00000270: 9f91 c63e cc9e ed3e 2dc4 f13e 1460 923e
00000280: 134e 043e 29aa 893e bdfc a63b 33cd 153e
00000290: c384 f3be 39bf a63e 201f 4a3d 733f cfbd
000002a0: d086 12be 6403 693e f305 afbe 84bf 303e
000002b0: 8dec 5c3e 0052 57be af83 18be 7043 edbd
000002c0: 9175 bdbd c18c b8be 7cf7 cb3e af6f c5be
000002d0: 8b21 4fbe 34bf 713e 1a08 c53e f3cd 80be
000002e0: 2af9 033f 251c 553e adcc a4be d6cb dbbe
000002f0: c691 223e a6a6 223e 409e 4abe d8f0 d13e
00000300: abea e0bd 3a70 963e 4189 2d3e bbdf e43e
00000310: 1674 8ebe f7e5 d9be 2ade a83e 82bf c73e
00000320: 31b3 df3e bd13 25be 8f85 923e af6f 133e
00000330: cfdf 743c d2a8 bcbe 7418 bfbd 962c a83c
00000340: aadc 28be 2356 51bd f1f5 4b3b 0f03 dfbe
00000350: 7178 3cbb 165b b5be 3ffa e3be b033 b7bd
00000360: 30b8 69be 1f62 f0be fd42 473e 20ca 9fbe
00000370: 4b69 04bd 6b6c 5cbc e29b 933e 4daa 5b3e
00000380: 35f2 b6be cc92 8dbe 4bef dcbe 56de 41be
00000390: e005 d73e 06da d6be a381 923e 27cb 0e3e
000003a0: 2a7f c2be 053e 533e 9b49 453e ec5f cabe
000003b0: 5642 993e 340d eebe 1d27 5ebd 6737 73bc
000003c0: 9d3f 0e3d 52b6 98be 7031 d63d c5f0 03bf
000003d0: 62ce b53d d317 973e 46c4 033f fea9 c33c
000003e0: d6c4 12bd 75f2 a83e 07fe 5f3e b09f 6bbe
000003f0: d070 c4be a757 0bbe 9ad2 4dbd fe8c 963e
-0.50955254 0.32656166 -0.3439031 0.12597173 -0.1497554 -0.24197544 -0.34891728 -0.1586028
0.30050388 0.2876046 0.0399154 -0.20283431 0.44297582 0.06939234 0.38063216 -0.19169131
-0.27979144 0.23251429 0.14719358 0.14376359 -0.25884435 0.359009 -0.103842154 -0.49690145
0.07143861 0.3400536 0.311479 -0.1362331 0.55574155 0.21274367 -0.27118033 -0.4994503
-0.10969382 -0.265499 -0.2006914 -0.28975725 -0.29051125 0.29448152 0.16909598 0.3868886
-0.11094738 -0.16136338 0.26073772 0.21520169 -0.24553439 0.11768288 -0.45125264 -0.25893122
-0.45560506 0.14246549 0.2284101 0.3992646 -0.04002929 -0.12287709 -0.4462725 -0.09056682
0.16425209 0.11339492 0.33348325 0.11323727 0.3223368 0.06635734 0.39235568 0.43628767
0.12945299 0.12918827 -0.17466277 -0.21088335 -0.24427462 0.2640198 0.33216205 0.45780975
-0.1650176 -0.2206439 0.3226527 0.30831042 -0.5593847 -0.14582004 0.1198186 -0.3778068
0.08773329 0.16157535 0.21731296 0.45131183 -0.07718444 0.36437494 0.18712439 0.15341373
0.13551795 -0.4024493 -0.040712547 -0.38321415 0.3448012 -0.3868303 0.3497086 -0.11231871
-0.43235153 0.18986897 -0.040844213 0.41128835 -0.33801064 -0.25964153 -0.15294707 0.11229803
-0.49152344 -0.07631079 0.21288745 -0.00022406425 0.3026629 -0.18067077 -0.032512017 -0.49627754
0.002100103 -0.427328 -0.42217457 -0.14730152 -0.42471704 0.11458578 -0.04619569 0.31464398
-0.036887866 -0.18111955 0.26523778 -0.34345284 -0.10217796 -0.0040937057 0.17245756 -0.28037834
-0.46306437 -0.24878427 0.27312642 0.1243287 0.3184159 -0.08582962 -0.41127476 -0.21048062
0.16225106 0.2320499 -0.039071966 0.4701336 0.37785575 -0.2846615 0.40799502 -0.25197026
-0.05520442 0.08802729 0.32625082 -0.024703076 0.16512266 0.27217662 -0.14563772 0.23448415
-0.26201043 0.5804706 0.41220146 -0.302695 0.38782975 0.46410215 0.47219983 0.28588927
0.12920408 0.26887634 0.0050960467 0.14629059 -0.47562227 0.32567766 0.04934609 -0.10119524
-0.1430924 0.227552 -0.34184226 0.17260557 0.21574612 -0.21027374 -0.14893983 -0.11585128
-0.0925094 -0.36044887 0.39837253 -0.3856177 -0.2022764 0.23608094 0.38482744 -0.25157127
0.5155207 0.20811518 -0.32187405 -0.42928952 0.1587592 0.15883884 -0.1978693 0.41004062
-0.10982259 0.29382497 0.1694689 0.44701943 -0.27822942 -0.42558262 0.32981998 0.39013296
0.436914 -0.16120811 0.28617522 0.14398073 0.014945938 -0.3684755 -0.09330836 0.020529073
-0.16490427 -0.051107537 0.0031121934 -0.4355702 -0.0028758312 -0.35421056 -0.4452686 -0.089454055
-0.22824168 -0.4694986 0.19459148 -0.31208897 -0.032326978 -0.013453583 0.28829867 0.21451683
-0.35731664 -0.2765106 -0.43151316 -0.1893247 0.4199667 -0.41963214 0.2861453 0.13944684
-0.37987643 0.20629127 0.1926636 -0.39526308 0.29933423 -0.46494448 -0.05423652 -0.014844752
0.034728635 -0.298266 0.10458648 -0.5153926 0.08877255 0.29510364 0.51471364 0.02388477
-0.03583225 0.3299748 0.21874247 -0.23010135 -0.3836732 -0.13607655 -0.050249673 0.29404444

fc1.bias f4 [128]
00000000: 3e68 85be 9db0 e03e 0c3a 523e 5dcb 85be
00000010: 5fc0 f63e 4d28 b6be 999a 3b3d ae94 5fbe
00000020: ccbb e13e 8d67 cbbe df45 4cbe f1ac b4be
00000030: 69bd 813e a330 61bd 4a24 ca3e 5d48 7abe
00000040: 3531 d93e 49e5 e8be 337b d0be 9132 b5be
00000050: 9ff2 663b ae4a aabe b2dd 323e f0b8 b1be
00000060: c4fd 32be 602f 993d 71e5 a1be 25ac 0ebd
00000070: 26bd 95be 97de c83e 5654 523e 849b 7e3d
00000080: 9385 d4be 6ccf 61bc 45bb 09bd 3948 a9be
00000090: 28bd b13c 81d2 54be 3fbd e63e 6f67 2e3e
000000a0: 69a0 71be d206 803e defd 1b3e b1fc e6be
000000b0: a3fd 13be eedd 8a3e 494a 983e 6c7a 44be
000000c0: e270 2ebe e769 27bd 20c7 5dbe 680e edbe
000000d0: d826 9c3e b405 b13e 8efd 3d3e 4ca5 d43e
000000e0: 941c 093e 47e5 d5be 3ece afbe fd3d 573e
000000f0: 6c8e d1bd f127 7e3d 8bcb bd3e a20e 93be
00000100: da9a 93be c606 d33e 1564 7abe 0c12 733e
00000110: c5e8 b4be 934a 1cbe 1230 d13e 0e82 ca3e
00000120: 7fc2 bbbd 1cf1 acbd cb29 4abd b9db 71be
00000130: c852 8cbe 9bba 6f3e f149 ec3c fe80 3bbe
00000140: fbb3 d9bd 02cd 223e 3f8b f93d 3b0d edbd
00000150: faae 903e f5f9 73be 8ce4 3f3e 6ee8 a83e
00000160: e63e 3abe 202c 5c3e f8de 92be 0317 5abe
00000170: 3e24 6e3d 8366 913d c432 80be 4aa3 eabe
00000180: 242c 9cbe 686e 28be 98fc 903e 320c a0be
00000190: 0223 1c3e fac1 c03e 7188 47bd 5137 ecbc
000001a0: 4978 053e d40b 87be adcb a8be 7b2d e0be
000001b0: d762 c0be 0324 773d b82d c1be ce45 e13c
000001c0: 3fe9 d43d 9b86 1a3e b83d ba3e 07e9 e93e
000001d0: 7753 793e 6e25 c2be 7cea fa3c ca51 44be
000001e0: 74f1 4e3c c0f7 08bf da77 86be ff39 bd3e
000001f0: f25a 00be dc1e 67be d12d ac3e 38e9 a93e
-0.26056093 0.43884745 0.20529956 -0.26131716 0.48193642 -0.35577622 0.045801733 -0.2183406
0.4408859 -0.3972744 -0.19948529 -0.35288194 0.2533982 -0.054978024 0.3948081 -0.24441667
0.42420354 -0.4548743 -0.40718994 -0.35390142 0.0035239828 -0.332601 0.17467383 -0.3471141
-0.17479616 0.07479739 -0.31620362 -0.03483214 -0.2924587 0.39232323 0.20539984 0.06216003
-0.4150816 -0.013782363 -0.03362586 -0.33062914 0.021696642 -0.20783426 0.45066258 0.17031644
-0.23596348 0.25005203 0.15233561 -0.45114663 -0.14452223 0.27122444 0.29744175 -0.19187325
-0.17035249 -0.04087248 -0.21657991 -0.46300054 0.30498385 0.34574664 0.18553755 0.41532362
0.13389808 -0.41776487 -0.34337038 0.2101974 -0.10232243 0.06204981 0.37069353 -0.287221
-0.2882908 0.41216105 -0.24452241 0.23737353 -0.3533384 -0.15262823 0.40856987 0.3955235
-0.091679566 -0.084444255 -0.049356263 -0.23618974 -0.27406907 0.23411028 0.028843852 -0.18310925
-0.10630032 0.15898517 0.12184762 -0.11574789 0.28258497 -0.2382582 0.18739527 0.3298983
-0.18188056 0.21501207 -0.28685737 -0.21297841 0.058140032 0.07099631 -0.2503873 -0.45827705
-0.30502427 -0.16448367 0.28317714 -0.31259304 0.1524773 0.37647992 -0.048714105 -0.02883497
0.13034166 -0.26376212 -0.32967892 -0.437847 -0.3757541 0.060337078 -0.37730193 0.027499106
0.10396051 0.1509041 0.36375213 0.45685598 0.24348246 -0.37919182 0.030629389 -0.19171825
0.012630809 -0.53503036 -0.26263314 0.3695831 -0.12534693 -0.22570366 0.33628705 0.33185744

fc2.weight f4 [64, 128]
00000000: c591 06bc 71b6 bcbc 89d7 093b ada1 af3c
00000010: f75b 5bbe 59aa 59be f76a 2e3e 0a78 6f3d
00000020: 6249 c83c 34ff 0a3e a3d4 d03a b75b 7cbd
00000030: cf82 33be 6fac b93d e05c 87bd 478e b33d
00000040: d43c 3ebe 0344 5f3d 3580 b73d 9d71 d83d
00000050: b2d1 94bb e299 263d 64a9 c63d 9dbc 3b3e
00000060: fc44 a9ba 0ef1 aabd 1258 593b de64 51be
00000070: 448e 003c c2df 66be 73f7 c8bd 0503 00be
00000080: a0e6 a53d 78bd 82bd c2a0 f1bd 9ee4 32bb
00000090: 010e 5abe d37d 793d d489 2dbe 249a 47bd
000000a0: 8d39 e3bc 20df cabd 1c06 f03d cdd1 043e
000000b0: a01d 993c b1fc 383d 2a30 17be 8826 62be
000000c0: 9aaa 2f3e 9cdc f5bd fa46 9b3d fe70 003e
000000d0: 73f5 e33b 50f4 e8bd d7a6 0ebe 576f 1bbe
000000e0: 4937 c7bc bf37 ff3b 4834 223d c158 f33d
000000f0: ff43 d5bd acae bebd 3534 543d dfc8 943d
00000100: ac40 143d 6b69 363d 8654 90bd 6119 2dbe
00000110: fb96 6b3e 7fce e2bd 9381 f53b 8602 78be
00000120: 18ad 663d 1b88 de3d 4366 29bd d1de 1bbe
00000130: b321 d6bc a42b 12bd 8391 bcba 9c25 d53c
00000140: 27a8 f0bd 2235 3d3d b8dc 20be 1a93 5d3d
00000150: e247 21be 8087 31bd 9ac4 b4bc c372 2bbd
00000160: a59a 953d 5c20 d5bd 93a7 d23d fbb2 ed3c
00000170: 87ea 85bc f31e f9bd fd8e 913d dafe 9eba
00000180: a0a2 703d 7789 18bd 983a 7ebc 62e1 20bc
00000190: 14aa fe3d dbbf bbbc 2e9c de3d d4ff 53bd
000001a0: f159 48bd 1577 393e c33b c5bd 3611 783d
000001b0: 4d71 d0bc 7192 a1bd 3cfa f63d 6caf c3bd
000001c0: 4679 11be 340f aabd 30b4 50bd 3f3a 5ebd
000001d0: e1ab b5bb fd7b 9ebd 52a3 51be b4d8 53bc
000001e0: 8eb7 1ebd cdc9 a3bd 33d9 6a3d d72e 903c
000001f0: 8112 c5bd e4d8 83bd bd63 843d 2513 dbbd
00000200: ab83 86bd 24fb 9bbd 0ebb 10bd eee3 73bd
00000210: 3fd4 99bd efe3 07bd 528f b3bd ba65 14bc
00000220: f18d b53c 682c abbc ff90 4d3d 79bc 063d
00000230: 60b3 6fbd 7deb c6ba 9d2a 14bc d7f2 80bc
00000240: 05bb 1f3c 9e33 173c 99c0 b0bc 74b6 7e3c
00000250: 349e 973d f2b5 4dbd bcfb 81bc 0c16 a93b
00000260: 9f57 c9bb d0ab b53c 6e40 d2bd f094 083d
00000270: 72b9 903d 15d2 7a3c e39f b8bd ec4b a0bd
00000280: dafe 9b3c ee4e 87bb 68f5 16bd 11b2 853d
00000290: 7ae4 103d 10f3 bf3c 33ac 2c3d eb52 aebd
000002a0: 613e 033c ede2 2c3c cee0 8ebc 2efb 86bc
000002b0: 4868 62bc 11b0 ebbb 1d17 27bb 1c11 59bd
000002c0: c930 973d 95f3 45bd cac2 95bd 68ab 98bd
000002d0: 1683 59bd 2eec 123d 5b66 d63c 6e3d d3bd
000002e0: be8b 36bd 3823 36bd 3fc4 383d b6b2 9fbd
000002f0: 9844 ebbc ba9e 85bd 689f 81bd c0e7 a7bd
00000300: b3af e6bc 682a 083d 7c50 b2bd 0c68 5abd
00000310: 6ce5 82bd bbc6 f8bc ce9d 83bd fc55 703d
00000320: 4aa3 fc3c 4e40 03bc 6c2a 4a3d cc45 82bd
00000330: b764 96bc 82b1 8dbd 923d 6e3d 00dc 2f3d
00000340: 9543 6c3d e25e 70bc 2bb7 abbd 2cb8 1dbd
00000350: 6a57 38bc 80af 063d 7a45 97bd 14a5 5fbd
00000360: 7e50 693c c9db 6e3b d6b7 803d aca4 9bbc
00000370: 374d 8b3d d4b9 b3bd 4375 2bbd 9ec1 7b3d
00000380: e471 edbb 36f2 603c 2c36 ca3c cb36 b7ba
00000390: b155 70bd ef92 e8bc 3dc8 a03d d08b af3c
000003a0: add1 3abd 81d1 9e3d 03d3 e43c f0ac 18bc
000003b0: 794e 9ebc f53c b53c d511 65bd cadb 093d
000003c0: 7747 22bd 4b73 9fbd 7ee2 723d ee92 a53b
000003d0: 7163 5e3d 478f cebc 3c7c b6bd df47 963d
000003e0: 3bbc 783d 5c6f 91bd e7c1 64bc b9d7 e6bc
000003f0: 6e1d 79bd 551b 84bd d2c0 f9bb 3734 0f3d
-0.008213465 -0.023036214 0.002103301 0.021439398 -0.214218 -0.21256389 0.17032991 0.058464088
0.024449054 0.13573915 0.0015932511 -0.061610904 -0.17530368 0.09066092 -0.066095114 0.087673716
-0.18577892 0.05450822 0.089600004 0.10568545 -0.004541599 0.040674098 0.097002774 0.18333669
-0.0012914236 -0.08346759 0.0033164066 -0.20448634 0.007846419 -0.22546294 -0.09812822 -0.12501152
0.08100629 -0.063837945 -0.1179824 -0.002729691 -0.21294405 0.06091101 -0.16947109 -0.048730984
-0.027737403 -0.09905839 0.11719915 0.12970658 0.018690884 0.04516286 -0.14764467 -0.22085011
0.17154923 -0.120049685 0.07581897 0.12543103 0.00695675 -0.11374724 -0.13930832 -0.15179192
-0.024318354 0.007788628 0.03960064 0.11882163 -0.1041336 -0.0931066 0.0518076 0.072648756
0.03619449 0.04453413 -0.070473716 -0.16904213 0.23006813 -0.11074542 0.007492253 -0.24219713
0.05631742 0.10865804 -0.04135729 -0.15221716 -0.026139116 -0.03568615 -0.0014386628 0.02601891
-0.117508225 0.04619325 -0.15709198 0.054095365 -0.15750077 -0.043342113 -0.022066403 -0.041857492
0.07304887 -0.10406563 0.102858685 0.029016009 -0.016347183 -0.12164106 0.07107351 -0.0012130395
0.05874884 -0.03724047 -0.0155168995 -0.00981936 0.124347836 -0.022918632 0.10869633 -0.05175765
-0.0489139 0.18111832 -0.09630539 0.06056329 -0.025444651 -0.078892596 0.12059447 -0.095549434
-0.14206418 -0.08303681 -0.05095309 -0.054254767 -0.005544171 -0.07738493 -0.20472458 -0.012930084
-0.03874927 -0.07997475 0.057336044 0.01760046 -0.0962267 -0.06437853 0.06464336 -0.10697011
-0.065680824 -0.07616261 -0.03533464 -0.059543543 -0.07511186 -0.03317636 -0.087675706 -0.009057457
0.02216241 -0.020895198 0.050187107 0.032894585 -0.058520675 -0.0015176382 -0.009043363 -0.015740795
0.009749179 0.009228615 -0.021576213 0.01554643 0.07403222 -0.050222345 -0.015867107 0.005160099
-0.0061444785 0.022176653 -0.10266195 0.033345163 0.07066621 0.0153088765 -0.09014871 -0.07826981
0.019042421 -0.004129282 -0.03685513 0.06528104 0.035374142 0.02343133 0.04215641 -0.08511909
0.008010478 0.01055215 -0.01744118 -0.016477194 -0.013818808 -0.0071926196 -0.0025495954 -0.052994832
0.07382352 -0.048328 -0.07312544 -0.07454568 -0.05310353 0.03586977 0.026171854 -0.10314451
-0.044566862 -0.04446718 0.04510903 -0.07797758 -0.028719231 -0.06524415 -0.063292325 -0.081985
-0.028159952 0.033243567 -0.087067574 -0.053321883 -0.06391415 -0.0303682 -0.06426583 0.05867575
0.030839581 -0.008010937 0.049356863 -0.06360969 -0.018358571 -0.069186226 0.058164187 0.042934418
0.05768164 -0.014671059 -0.08384546 -0.038505718 -0.01125131 0.032882214 -0.073862985 -0.05460079
0.014240382 0.003644692 0.06285064 -0.01899942 0.06801837 -0.08775678 -0.041859876 0.061463945
-0.007246243 0.013729623 0.024684034 -0.0013978122 -0.05867547 -0.028390376 0.078506924 0.021428972
-0.04561012 0.077548034 0.02793265 -0.009318575 -0.019324528 0.022123793 -0.05592521 0.033656873
-0.039618935 -0.07785662 0.05929803 0.005052916 0.054294053 -0.025214804 -0.089104146 0.07337927
0.060726386 -0.07101318 -0.013962246 -0.028179036 -0.060819082 -0.06450526 -0.007621863 0.034961905

fc2.bias f4 [64]
00000000: 1f50 1cbd d51b 4a3d 604a dfbc 0582 3a3c
00000010: 872d 18bd ccae 823c 789a b23d 524f 553c
00000020: 1673 7cbc cb8e 0a3d 7185 e23c e44b a6bc
00000030: 6498 7f3d 15b2 823d 7402 87bd 8954 c23c
00000040: 7247 acbd e049 8b3b fceb 913c 0433 093d
00000050: 1ec2 933d 4d50 553d d381 cdbc 5167 1bbd
00000060: e715 adbb 2710 13bd 3639 a33d 47f2 843c
00000070: cdf3 8fbd 9d95 0ebe 3cfd 323d d8cc ff3c
00000080: 2706 d53d fa5c acbc 94ca 823d 3e1b 49bd
00000090: 9ab5 d03d b7ee 3cbc 607d c73d 3356 5cbd
000000a0: 5fb8 64bd 4d74 7a3d 313d a33d f355 683d
000000b0: 61df 013d 3ff0 83bc 8208 f7bd 74fc b33d
000000c0: 509f 963d 7321 363d 5c1c aa3d 8316 f73b
000000d0: c123 a23d 0a13 d1bd 2c22 9f3d 3753 473d
000000e0: 2a9b e13d 1459 c43d 7e5d 4f3d fc57 4e3d
000000f0: 7e7b a63b 776a 3bbc a8b7 153d 0e47 853d
-0.038162347 0.04934295 -0.027257144 0.011383538 -0.037152793 0.01595249 0.08720869 0.0130194
-0.015408298 0.033827584 0.02765152 -0.02029986 0.06240119 0.06381623 -0.06592265 0.02372195
-0.084120646 0.00425075 0.017812721 0.033495918 0.07214759 0.052078534 -0.02508632 -0.037940327
-0.005282152 -0.035904076 0.079698965 0.016228808 -0.07028923 -0.1392426 0.043698534 0.031225607
0.10401564 -0.021040428 0.06386295 -0.049098246 0.10190888 -0.011531523 0.0974071 -0.053793143
-0.055839892 0.06114607 0.07970656 0.056722593 0.03170717 -0.01610577 -0.120621696 0.08788386
0.07354605 0.044465493 0.0830619 0.0075405254 0.07916976 -0.102087095 0.0777019 0.048663344
0.11015923 0.09587303 0.05062627 0.050376877 0.0050806394 -0.011438957 0.0365521 0.06507693

fc3.weight f4 [2, 64]
00000000: b65d f43d d1c3 123d 6e5e df3d d2b6 92bd
00000010: affa b73d c929 15be 4f2b 163e 18f8 ebbb
00000020: 6514 d8bd 3f67 153d 1cd8 4a3e 2e66 c73c
00000030: cee5 1ebe 7435 fcbd 8665 16be be30 f6bd
00000040: 1afd 793e d242 2f3e ac65 edbd c404 12be
00000050: d286 67bd 48c4 bdbd 6db1 033d 7e44 d4bb
00000060: 93da c53d 75a5 2b3e 56ad cd3b 049f 45be
00000070: d4cd 513d 6598 a73e 20d1 063e 780a 173e
00000080: 4d10 2e3d 919a d0bd 54a9 803d 8b7c 6e3d
00000090: bda0 75bd 3729 8f3d 4d25 2abd d012 ab3d
000000a0: 0883 14be a5a7 a63d a9a8 cb3d cd32 19be
000000b0: 3519 b43c 902c 5cbd 1ac5 843e d26a c0bd
000000c0: 190b b8bd cf97 fe3c fc17 103e 23a7 583c
000000d0: 4ec8 08be 92c7 d6bb 479b 493d aea5 e63d
000000e0: 4932 efbd bb8e 49be c891 e7bc 68f9 23be
000000f0: 2cfc 203e d466 bcbd e0e2 963d 0892 9cbd
00000100: e30e a3be 900b 993d 0000 5b38 2e11 3c3e
00000110: 95a7 99bd 3152 85bd f3a7 22be fef5 813d
00000120: 346b e23d 72c9 67bc 48c6 8fbd c99a 0dbe
00000130: 592d d93d 150c db3c 27ef 4d3d fe53 68ba
00000140: c7da 11be 6f5e 893d f0ef be3d 2963 a33b
00000150: 3997 f83c 22ef c63d bd4e 05be 0c83 6b3d
00000160: db8f 5dbc e719 2abe 3520 cfbd bded 7c3d
00000170: 8820 50bd 4af3 a5be 10a6 27be da39 ac3d
00000180: 5164 39be 5509 c53d 54a8 a6bd e2b4 2abe
00000190: 758e 893d a179 ff3d 5eef 18be 8069 20bd
000001a0: 15df 133c b955 dc3d ec7b 9dbd 193c 5f3e
000001b0: e6d2 b73d 7c8c d13c a311 72be 0424 933d
000001c0: e3de 533d 8b25 0d3e c576 6e3c 0cf0 a3bd
000001d0: 90b9 a23c 2ff2 f3bc 3338 ebbd 3cb1 b5bc
000001e0: e33a fd3c 33fa 273e 536a 3e3e 93e7 4c3d
000001f0: 236b 24be b15f c13d 009c a9bd 640f 513e
0.119319364 0.035831276 0.10906683 -0.071637765 0.08983361 -0.14566721 0.14664958 -0.007201206
-0.10550765 0.036475416 0.19809002 0.024340715 -0.15517351 -0.12314883 -0.14687166 -0.120210156
0.24412957 0.17115334 -0.11591658 -0.1425963 -0.05652506 -0.09265953 0.03215163 -0.0064778915
0.0966083 0.16762336 0.006276767 -0.19298941 0.051221684 0.32733455 0.13165712 0.14750087
0.042496014 -0.10185731 0.06282297 0.058224242 -0.059967745 0.06990283 -0.04153948 0.083531976
-0.1450311 0.081374444 0.09944279 -0.14960785 0.021984676 -0.053753436 0.25931627 -0.09395374
-0.08986492 0.031078247 0.1407165 0.013223442 -0.1335766 -0.0065545524 0.04922035 0.1126207
-0.11679513 -0.19683354 -0.028267756 -0.1601311 0.15721196 -0.091993004 0.07367492 -0.07645041
-0.31847295 0.074729085 5.221367e-05 0.18365929 -0.07502667 -0.065098174 -0.1588438 0.063457474
0.110556036 -0.014147149 -0.07020241 -0.13828577 0.106043525 0.02673916 0.0502769 -0.00088626135
-0.14243613 0.06707465 0.09323108 0.004986186 0.030345546 0.0971358 -0.13018318 0.057498023
-0.013523067 -0.16611443 -0.10113565 0.061750162 -0.050812274 -0.32412177 -0.16371942 0.08409472
-0.18104674 0.096209206 -0.08137575 -0.16670564 0.06716625 0.12474371 -0.14935061 -0.039163113
0.009025355 0.10758538 -0.07689652 0.21800269 0.089757726 0.025579683 -0.2363954 0.07184604
0.051726233 0.13783853 0.014554684 -0.0800477 0.019863874 -0.029778568 -0.114853285 -0.022179238
0.030911868 0.16404037 0.18595247 0.050025534 -0.16056494 0.0944208 -0.08281708 0.20416027

fc3.bias f4 [2]
00000000: f233 efbb 8f20 003d
-0.0072998935 0.03128105
